…
I0420 12:55:16.138142 23375 net.cpp:294] The NetState phase (0) differed from the phase (1) specified by a rule in layer accuracy
I0420 12:55:16.138226 23375 net.cpp:51] Initializing net from parameters: 
name: "Grocery-CaffeNet"
state {
  phase: TRAIN
  level: 0
  stage: ""
}
layer {
  name: "data"
  type: "Data"
  top: "data"
  top: "label"
  include {
    phase: TRAIN
  }
  transform_param {
    mirror: true
    crop_size: 227
    mean_file: "data/ilsvrc14det.groceryitems/ilsvrc14det_grocery_train_mean.binaryproto"
  }
  data_param {
    source: "/mnt/localdb/lmdb/ilsvrc14det_grocery_train_lmdb"
    batch_size: 125
    backend: LMDB
  }
}
layer {
  name: "conv1"
  type: "Convolution"
  bottom: "data"
  top: "conv1"
  param {
    lr_mult: 1
    decay_mult: 1
  }
  param {
    lr_mult: 2
    decay_mult: 0
  }
  convolution_param {
    num_output: 96
    kernel_size: 11
    stride: 4
    weight_filler {
      type: "gaussian"
      std: 0.01
    }
    bias_filler {
      type: "constant"
      value: 0
    }
  }
}
layer {
  name: "relu1"
  type: "ReLU"
  bottom: "conv1"
  top: "conv1"
}
layer {
  name: "pool1"
  type: "Pooling"
  bottom: "conv1"
  top: "pool1"
  pooling_param {
    pool: MAX
    kernel_size: 3
    stride: 2
  }
}
layer {
  name: "norm1"
  type: "LRN"
  bottom: "pool1"
  top: "norm1"
  lrn_param {
    local_size: 5
    alpha: 0.0001
    beta: 0.75
  }
}
layer {
  name: "conv2"
  type: "Convolution"
  bottom: "norm1"
  top: "conv2"
  param {
    lr_mult: 1
    decay_mult: 1
  }
  param {
    lr_mult: 2
    decay_mult: 0
  }
  convolution_param {
    num_output: 256
    pad: 2
    kernel_size: 5
    group: 2
    weight_filler {
      type: "gaussian"
      std: 0.01
    }
    bias_filler {
      type: "constant"
      value: 1
    }
  }
}
layer {
  name: "relu2"
  type: "ReLU"
  bottom: "conv2"
  top: "conv2"
}
layer {
  name: "pool2"
  type: "Pooling"
  bottom: "conv2"
  top: "pool2"
  pooling_param {
    pool: MAX
    kernel_size: 3
    stride: 2
  }
}
layer {
  name: "norm2"
  type: "LRN"
  bottom: "pool2"
  top: "norm2"
  lrn_param {
    local_size: 5
    alpha: 0.0001
    beta: 0.75
  }
}
layer {
  name: "conv3"
  type: "Convolution"
  bottom: "norm2"
  top: "conv3"
  param {
    lr_mult: 1
    decay_mult: 1
  }
  param {
    lr_mult: 2
    decay_mult: 0
  }
  convolution_param {
    num_output: 384
    pad: 1
    kernel_size: 3
    weight_filler {
      type: "gaussian"
      std: 0.01
    }
    bias_filler {
      type: "constant"
      value: 0
    }
  }
}
layer {
  name: "relu3"
  type: "ReLU"
  bottom: "conv3"
  top: "conv3"
}
layer {
  name: "conv4"
  type: "Convolution"
  bottom: "conv3"
  top: "conv4"
  param {
    lr_mult: 1
    decay_mult: 1
  }
  param {
    lr_mult: 2
    decay_mult: 0
  }
  convolution_param {
    num_output: 384
    pad: 1
    kernel_size: 3
    group: 2
    weight_filler {
      type: "gaussian"
      std: 0.01
    }
    bias_filler {
      type: "constant"
      value: 1
    }
  }
}
layer {
  name: "relu4"
  type: "ReLU"
  bottom: "conv4"
  top: "conv4"
}
layer {
  name: "conv5"
  type: "Convolution"
  bottom: "conv4"
  top: "conv5"
  param {
    lr_mult: 1
    decay_mult: 1
  }
  param {
    lr_mult: 2
    decay_mult: 0
  }
  convolution_param {
    num_output: 256
    pad: 1
    kernel_size: 3
    group: 2
    weight_filler {
      type: "gaussian"
      std: 0.01
    }
    bias_filler {
      type: "constant"
      value: 1
    }
  }
}
layer {
  name: "relu5"
  type: "ReLU"
  bottom: "conv5"
  top: "conv5"
}
layer {
  name: "pool5"
  type: "Pooling"
  bottom: "conv5"
  top: "pool5"
  pooling_param {
    pool: MAX
    kernel_size: 3
    stride: 2
  }
}
layer {
  name: "fc6"
  type: "InnerProduct"
  bottom: "pool5"
  top: "fc6"
  param {
    lr_mult: 1
    decay_mult: 1
  }
  param {
    lr_mult: 2
    decay_mult: 0
  }
  inner_product_param {
    num_output: 4096
    weight_filler {
      type: "gaussian"
      std: 0.005
    }
    bias_filler {
      type: "constant"
      value: 1
    }
  }
}
layer {
  name: "relu6"
  type: "ReLU"
  bottom: "fc6"
  top: "fc6"
}
layer {
  name: "drop6"
  type: "Dropout"
  bottom: "fc6"
  top: "fc6"
  dropout_param {
    dropout_ratio: 0.5
  }
}
layer {
  name: "fc7"
  type: "InnerProduct"
  bottom: "fc6"
  top: "fc7"
  param {
    lr_mult: 1
    decay_mult: 1
  }
  param {
    lr_mult: 2
    decay_mult: 0
  }
  inner_product_param {
    num_output: 4096
    weight_filler {
      type: "gaussian"
      std: 0.005
    }
    bias_filler {
      type: "constant"
      value: 1
    }
  }
}
layer {
  name: "relu7"
  type: "ReLU"
  bottom: "fc7"
  top: "fc7"
}
layer {
  name: "drop7"
  type: "Dropout"
  bottom: "fc7"
  top: "fc7"
  dropout_param {
    dropout_ratio: 0.5
  }
}
layer {
  name: "fc8v"
  type: "InnerProduct"
  bottom: "fc7"
  top: "fc8v"
  param {
    lr_mult: 10
    decay_mult: 1
  }
  param {
    lr_mult: 20
    decay_mult: 0
  }
  inner_product_param {
    num_output: 21
    weight_filler {
      type: "gaussian"
      std: 0.01
    }
    bias_filler {
      type: "constant"
      value: 0
    }
  }
}
layer {
  name: "loss"
  type: "SoftmaxWithLoss"
  bottom: "fc8v"
  bottom: "label"
  top: "loss"
}
I0420 12:55:16.138414 23375 layer_factory.hpp:77] Creating layer data
I0420 12:55:16.138478 23375 db_lmdb.cpp:35] Opened lmdb /mnt/localdb/lmdb/ilsvrc14det_grocery_train_lmdb
I0420 12:55:16.138497 23375 net.cpp:84] Creating Layer data
I0420 12:55:16.138504 23375 net.cpp:380] data -> data
I0420 12:55:16.138516 23375 net.cpp:380] data -> label
I0420 12:55:16.138525 23375 data_transformer.cpp:25] Loading mean file from: data/ilsvrc14det.groceryitems/ilsvrc14det_grocery_train_mean.binaryproto
I0420 12:55:16.176239 23375 data_layer.cpp:45] output data size: 125,3,227,227
I0420 12:55:16.254413 23375 net.cpp:122] Setting up data
I0420 12:55:16.254439 23375 net.cpp:129] Top shape: 125 3 227 227 (19323375)
I0420 12:55:16.254442 23375 net.cpp:129] Top shape: 125 (125)
I0420 12:55:16.254446 23375 net.cpp:137] Memory required for data: 77294000
I0420 12:55:16.254451 23375 layer_factory.hpp:77] Creating layer conv1
I0420 12:55:16.254478 23375 net.cpp:84] Creating Layer conv1
I0420 12:55:16.254482 23375 net.cpp:406] conv1 <- data
I0420 12:55:16.254490 23375 net.cpp:380] conv1 -> conv1
I0420 12:55:16.536228 23375 net.cpp:122] Setting up conv1
I0420 12:55:16.536262 23375 net.cpp:129] Top shape: 125 96 55 55 (36300000)
I0420 12:55:16.536264 23375 net.cpp:137] Memory required for data: 222494000
I0420 12:55:16.536288 23375 layer_factory.hpp:77] Creating layer relu1
I0420 12:55:16.536300 23375 net.cpp:84] Creating Layer relu1
I0420 12:55:16.536303 23375 net.cpp:406] relu1 <- conv1
I0420 12:55:16.536306 23375 net.cpp:367] relu1 -> conv1 (in-place)
I0420 12:55:16.536458 23375 net.cpp:122] Setting up relu1
I0420 12:55:16.536463 23375 net.cpp:129] Top shape: 125 96 55 55 (36300000)
I0420 12:55:16.536464 23375 net.cpp:137] Memory required for data: 367694000
I0420 12:55:16.536466 23375 layer_factory.hpp:77] Creating layer pool1
I0420 12:55:16.536478 23375 net.cpp:84] Creating Layer pool1
I0420 12:55:16.536479 23375 net.cpp:406] pool1 <- conv1
I0420 12:55:16.536483 23375 net.cpp:380] pool1 -> pool1
I0420 12:55:16.538383 23375 net.cpp:122] Setting up pool1
I0420 12:55:16.538391 23375 net.cpp:129] Top shape: 125 96 27 27 (8748000)
I0420 12:55:16.538408 23375 net.cpp:137] Memory required for data: 402686000
I0420 12:55:16.538413 23375 layer_factory.hpp:77] Creating layer norm1
I0420 12:55:16.538439 23375 net.cpp:84] Creating Layer norm1
I0420 12:55:16.538441 23375 net.cpp:406] norm1 <- pool1
I0420 12:55:16.538446 23375 net.cpp:380] norm1 -> norm1
I0420 12:55:16.540904 23375 net.cpp:122] Setting up norm1
I0420 12:55:16.540927 23375 net.cpp:129] Top shape: 125 96 27 27 (8748000)
I0420 12:55:16.540933 23375 net.cpp:137] Memory required for data: 437678000
I0420 12:55:16.540942 23375 layer_factory.hpp:77] Creating layer conv2
I0420 12:55:16.540961 23375 net.cpp:84] Creating Layer conv2
I0420 12:55:16.540971 23375 net.cpp:406] conv2 <- norm1
I0420 12:55:16.540983 23375 net.cpp:380] conv2 -> conv2
I0420 12:55:16.550444 23375 net.cpp:122] Setting up conv2
I0420 12:55:16.550464 23375 net.cpp:129] Top shape: 125 256 27 27 (23328000)
I0420 12:55:16.550482 23375 net.cpp:137] Memory required for data: 530990000
I0420 12:55:16.550493 23375 layer_factory.hpp:77] Creating layer relu2
I0420 12:55:16.550501 23375 net.cpp:84] Creating Layer relu2
I0420 12:55:16.550508 23375 net.cpp:406] relu2 <- conv2
I0420 12:55:16.550513 23375 net.cpp:367] relu2 -> conv2 (in-place)
I0420 12:55:16.551491 23375 net.cpp:122] Setting up relu2
I0420 12:55:16.551506 23375 net.cpp:129] Top shape: 125 256 27 27 (23328000)
I0420 12:55:16.551512 23375 net.cpp:137] Memory required for data: 624302000
I0420 12:55:16.551515 23375 layer_factory.hpp:77] Creating layer pool2
I0420 12:55:16.551522 23375 net.cpp:84] Creating Layer pool2
I0420 12:55:16.551525 23375 net.cpp:406] pool2 <- conv2
I0420 12:55:16.551532 23375 net.cpp:380] pool2 -> pool2
I0420 12:55:16.551581 23375 net.cpp:122] Setting up pool2
I0420 12:55:16.551589 23375 net.cpp:129] Top shape: 125 256 13 13 (5408000)
I0420 12:55:16.551592 23375 net.cpp:137] Memory required for data: 645934000
I0420 12:55:16.551596 23375 layer_factory.hpp:77] Creating layer norm2
I0420 12:55:16.551604 23375 net.cpp:84] Creating Layer norm2
I0420 12:55:16.551609 23375 net.cpp:406] norm2 <- pool2
I0420 12:55:16.551612 23375 net.cpp:380] norm2 -> norm2
I0420 12:55:16.551867 23375 net.cpp:122] Setting up norm2
I0420 12:55:16.551879 23375 net.cpp:129] Top shape: 125 256 13 13 (5408000)
I0420 12:55:16.551884 23375 net.cpp:137] Memory required for data: 667566000
I0420 12:55:16.551889 23375 layer_factory.hpp:77] Creating layer conv3
I0420 12:55:16.551901 23375 net.cpp:84] Creating Layer conv3
I0420 12:55:16.551906 23375 net.cpp:406] conv3 <- norm2
I0420 12:55:16.551913 23375 net.cpp:380] conv3 -> conv3
I0420 12:55:16.563758 23375 net.cpp:122] Setting up conv3
I0420 12:55:16.563771 23375 net.cpp:129] Top shape: 125 384 13 13 (8112000)
I0420 12:55:16.563776 23375 net.cpp:137] Memory required for data: 700014000
I0420 12:55:16.563783 23375 layer_factory.hpp:77] Creating layer relu3
I0420 12:55:16.563789 23375 net.cpp:84] Creating Layer relu3
I0420 12:55:16.563792 23375 net.cpp:406] relu3 <- conv3
I0420 12:55:16.563796 23375 net.cpp:367] relu3 -> conv3 (in-place)
I0420 12:55:16.563958 23375 net.cpp:122] Setting up relu3
I0420 12:55:16.563967 23375 net.cpp:129] Top shape: 125 384 13 13 (8112000)
I0420 12:55:16.563971 23375 net.cpp:137] Memory required for data: 732462000
I0420 12:55:16.563973 23375 layer_factory.hpp:77] Creating layer conv4
I0420 12:55:16.563980 23375 net.cpp:84] Creating Layer conv4
I0420 12:55:16.563983 23375 net.cpp:406] conv4 <- conv3
I0420 12:55:16.563988 23375 net.cpp:380] conv4 -> conv4
I0420 12:55:16.571938 23375 net.cpp:122] Setting up conv4
I0420 12:55:16.571949 23375 net.cpp:129] Top shape: 125 384 13 13 (8112000)
I0420 12:55:16.571951 23375 net.cpp:137] Memory required for data: 764910000
I0420 12:55:16.571956 23375 layer_factory.hpp:77] Creating layer relu4
I0420 12:55:16.571960 23375 net.cpp:84] Creating Layer relu4
I0420 12:55:16.571964 23375 net.cpp:406] relu4 <- conv4
I0420 12:55:16.571966 23375 net.cpp:367] relu4 -> conv4 (in-place)
I0420 12:55:16.572080 23375 net.cpp:122] Setting up relu4
I0420 12:55:16.572088 23375 net.cpp:129] Top shape: 125 384 13 13 (8112000)
I0420 12:55:16.572091 23375 net.cpp:137] Memory required for data: 797358000
I0420 12:55:16.572113 23375 layer_factory.hpp:77] Creating layer conv5
I0420 12:55:16.572120 23375 net.cpp:84] Creating Layer conv5
I0420 12:55:16.572123 23375 net.cpp:406] conv5 <- conv4
I0420 12:55:16.572126 23375 net.cpp:380] conv5 -> conv5
I0420 12:55:16.577419 23375 net.cpp:122] Setting up conv5
I0420 12:55:16.577427 23375 net.cpp:129] Top shape: 125 256 13 13 (5408000)
I0420 12:55:16.577430 23375 net.cpp:137] Memory required for data: 818990000
I0420 12:55:16.577436 23375 layer_factory.hpp:77] Creating layer relu5
I0420 12:55:16.577440 23375 net.cpp:84] Creating Layer relu5
I0420 12:55:16.577442 23375 net.cpp:406] relu5 <- conv5
I0420 12:55:16.577445 23375 net.cpp:367] relu5 -> conv5 (in-place)
I0420 12:55:16.577546 23375 net.cpp:122] Setting up relu5
I0420 12:55:16.577553 23375 net.cpp:129] Top shape: 125 256 13 13 (5408000)
I0420 12:55:16.577555 23375 net.cpp:137] Memory required for data: 840622000
I0420 12:55:16.577559 23375 layer_factory.hpp:77] Creating layer pool5
I0420 12:55:16.577564 23375 net.cpp:84] Creating Layer pool5
I0420 12:55:16.577569 23375 net.cpp:406] pool5 <- conv5
I0420 12:55:16.577574 23375 net.cpp:380] pool5 -> pool5
I0420 12:55:16.577601 23375 net.cpp:122] Setting up pool5
I0420 12:55:16.577605 23375 net.cpp:129] Top shape: 125 256 6 6 (1152000)
I0420 12:55:16.577606 23375 net.cpp:137] Memory required for data: 845230000
I0420 12:55:16.577608 23375 layer_factory.hpp:77] Creating layer fc6
I0420 12:55:16.577999 23375 net.cpp:84] Creating Layer fc6
I0420 12:55:16.578006 23375 net.cpp:406] fc6 <- pool5
I0420 12:55:16.578011 23375 net.cpp:380] fc6 -> fc6
I0420 12:55:16.813351 23375 net.cpp:122] Setting up fc6
I0420 12:55:16.813385 23375 net.cpp:129] Top shape: 125 4096 (512000)
I0420 12:55:16.813388 23375 net.cpp:137] Memory required for data: 847278000
I0420 12:55:16.813395 23375 layer_factory.hpp:77] Creating layer relu6
I0420 12:55:16.813401 23375 net.cpp:84] Creating Layer relu6
I0420 12:55:16.813405 23375 net.cpp:406] relu6 <- fc6
I0420 12:55:16.813408 23375 net.cpp:367] relu6 -> fc6 (in-place)
I0420 12:55:16.814080 23375 net.cpp:122] Setting up relu6
I0420 12:55:16.814087 23375 net.cpp:129] Top shape: 125 4096 (512000)
I0420 12:55:16.814105 23375 net.cpp:137] Memory required for data: 849326000
I0420 12:55:16.814106 23375 layer_factory.hpp:77] Creating layer drop6
I0420 12:55:16.814736 23375 net.cpp:84] Creating Layer drop6
I0420 12:55:16.814770 23375 net.cpp:406] drop6 <- fc6
I0420 12:55:16.814774 23375 net.cpp:367] drop6 -> fc6 (in-place)
I0420 12:55:16.814810 23375 net.cpp:122] Setting up drop6
I0420 12:55:16.814813 23375 net.cpp:129] Top shape: 125 4096 (512000)
I0420 12:55:16.814815 23375 net.cpp:137] Memory required for data: 851374000
I0420 12:55:16.814817 23375 layer_factory.hpp:77] Creating layer fc7
I0420 12:55:16.814821 23375 net.cpp:84] Creating Layer fc7
I0420 12:55:16.814822 23375 net.cpp:406] fc7 <- fc6
I0420 12:55:16.814826 23375 net.cpp:380] fc7 -> fc7
I0420 12:55:16.919621 23375 net.cpp:122] Setting up fc7
I0420 12:55:16.919654 23375 net.cpp:129] Top shape: 125 4096 (512000)
I0420 12:55:16.919658 23375 net.cpp:137] Memory required for data: 853422000
I0420 12:55:16.919665 23375 layer_factory.hpp:77] Creating layer relu7
I0420 12:55:16.919672 23375 net.cpp:84] Creating Layer relu7
I0420 12:55:16.919674 23375 net.cpp:406] relu7 <- fc7
I0420 12:55:16.919677 23375 net.cpp:367] relu7 -> fc7 (in-place)
I0420 12:55:16.919843 23375 net.cpp:122] Setting up relu7
I0420 12:55:16.919863 23375 net.cpp:129] Top shape: 125 4096 (512000)
I0420 12:55:16.919865 23375 net.cpp:137] Memory required for data: 855470000
I0420 12:55:16.919867 23375 layer_factory.hpp:77] Creating layer drop7
I0420 12:55:16.919872 23375 net.cpp:84] Creating Layer drop7
I0420 12:55:16.919873 23375 net.cpp:406] drop7 <- fc7
I0420 12:55:16.919876 23375 net.cpp:367] drop7 -> fc7 (in-place)
I0420 12:55:16.919894 23375 net.cpp:122] Setting up drop7
I0420 12:55:16.919898 23375 net.cpp:129] Top shape: 125 4096 (512000)
I0420 12:55:16.919899 23375 net.cpp:137] Memory required for data: 857518000
I0420 12:55:16.919901 23375 layer_factory.hpp:77] Creating layer fc8v
I0420 12:55:16.919924 23375 net.cpp:84] Creating Layer fc8v
I0420 12:55:16.919926 23375 net.cpp:406] fc8v <- fc7
I0420 12:55:16.919929 23375 net.cpp:380] fc8v -> fc8v
I0420 12:55:16.921020 23375 net.cpp:122] Setting up fc8v
I0420 12:55:16.921025 23375 net.cpp:129] Top shape: 125 21 (2625)
I0420 12:55:16.921041 23375 net.cpp:137] Memory required for data: 857528500
I0420 12:55:16.921046 23375 layer_factory.hpp:77] Creating layer loss
I0420 12:55:16.921344 23375 net.cpp:84] Creating Layer loss
I0420 12:55:16.921347 23375 net.cpp:406] loss <- fc8v
I0420 12:55:16.921350 23375 net.cpp:406] loss <- label
I0420 12:55:16.921368 23375 net.cpp:380] loss -> loss
I0420 12:55:16.922375 23375 layer_factory.hpp:77] Creating layer loss
…
I0420 12:55:16.924705 23375 net.cpp:294] The NetState phase (1) differed from the phase (0) specified by a rule in layer data
I0420 12:55:16.924795 23375 net.cpp:51] Initializing net from parameters: 
name: "Grocery-CaffeNet"
state {
  phase: TEST
}
layer {
  name: "data"
  type: "Data"
  top: "data"
  top: "label"
  include {
    phase: TEST
  }
  transform_param {
    mirror: false
    crop_size: 227
    mean_file: "data/ilsvrc14det.groceryitems/ilsvrc14det_grocery_train_mean.binaryproto"
  }
  data_param {
    source: "/mnt/localdb/lmdb/ilsvrc14det_grocery_val_lmdb"
    batch_size: 62
    backend: LMDB
  }
}
layer {
  name: "conv1"
  type: "Convolution"
  bottom: "data"
  top: "conv1"
  param {
    lr_mult: 1
    decay_mult: 1
  }
  param {
    lr_mult: 2
    decay_mult: 0
  }
  convolution_param {
    num_output: 96
    kernel_size: 11
    stride: 4
    weight_filler {
      type: "gaussian"
      std: 0.01
    }
    bias_filler {
      type: "constant"
      value: 0
    }
  }
}
layer {
  name: "relu1"
  type: "ReLU"
  bottom: "conv1"
  top: "conv1"
}
layer {
  name: "pool1"
  type: "Pooling"
  bottom: "conv1"
  top: "pool1"
  pooling_param {
    pool: MAX
    kernel_size: 3
    stride: 2
  }
}
layer {
  name: "norm1"
  type: "LRN"
  bottom: "pool1"
  top: "norm1"
  lrn_param {
    local_size: 5
    alpha: 0.0001
    beta: 0.75
  }
}
layer {
  name: "conv2"
  type: "Convolution"
  bottom: "norm1"
  top: "conv2"
  param {
    lr_mult: 1
    decay_mult: 1
  }
  param {
    lr_mult: 2
    decay_mult: 0
  }
  convolution_param {
    num_output: 256
    pad: 2
    kernel_size: 5
    group: 2
    weight_filler {
      type: "gaussian"
      std: 0.01
    }
    bias_filler {
      type: "constant"
      value: 1
    }
  }
}
layer {
  name: "relu2"
  type: "ReLU"
  bottom: "conv2"
  top: "conv2"
}
layer {
  name: "pool2"
  type: "Pooling"
  bottom: "conv2"
  top: "pool2"
  pooling_param {
    pool: MAX
    kernel_size: 3
    stride: 2
  }
}
layer {
  name: "norm2"
  type: "LRN"
  bottom: "pool2"
  top: "norm2"
  lrn_param {
    local_size: 5
    alpha: 0.0001
    beta: 0.75
  }
}
layer {
  name: "conv3"
  type: "Convolution"
  bottom: "norm2"
  top: "conv3"
  param {
    lr_mult: 1
    decay_mult: 1
  }
  param {
    lr_mult: 2
    decay_mult: 0
  }
  convolution_param {
    num_output: 384
    pad: 1
    kernel_size: 3
    weight_filler {
      type: "gaussian"
      std: 0.01
    }
    bias_filler {
      type: "constant"
      value: 0
    }
  }
}
layer {
  name: "relu3"
  type: "ReLU"
  bottom: "conv3"
  top: "conv3"
}
layer {
  name: "conv4"
  type: "Convolution"
  bottom: "conv3"
  top: "conv4"
  param {
    lr_mult: 1
    decay_mult: 1
  }
  param {
    lr_mult: 2
    decay_mult: 0
  }
  convolution_param {
    num_output: 384
    pad: 1
    kernel_size: 3
    group: 2
    weight_filler {
      type: "gaussian"
      std: 0.01
    }
    bias_filler {
      type: "constant"
      value: 1
    }
  }
}
layer {
  name: "relu4"
  type: "ReLU"
  bottom: "conv4"
  top: "conv4"
}
layer {
  name: "conv5"
  type: "Convolution"
  bottom: "conv4"
  top: "conv5"
  param {
    lr_mult: 1
    decay_mult: 1
  }
  param {
    lr_mult: 2
    decay_mult: 0
  }
  convolution_param {
    num_output: 256
    pad: 1
    kernel_size: 3
    group: 2
    weight_filler {
      type: "gaussian"
      std: 0.01
    }
    bias_filler {
      type: "constant"
      value: 1
    }
  }
}
layer {
  name: "relu5"
  type: "ReLU"
  bottom: "conv5"
  top: "conv5"
}
layer {
  name: "pool5"
  type: "Pooling"
  bottom: "conv5"
  top: "pool5"
  pooling_param {
    pool: MAX
    kernel_size: 3
    stride: 2
  }
}
layer {
  name: "fc6"
  type: "InnerProduct"
  bottom: "pool5"
  top: "fc6"
  param {
    lr_mult: 1
    decay_mult: 1
  }
  param {
    lr_mult: 2
    decay_mult: 0
  }
  inner_product_param {
    num_output: 4096
    weight_filler {
      type: "gaussian"
      std: 0.005
    }
    bias_filler {
      type: "constant"
      value: 1
    }
  }
}
layer {
  name: "relu6"
  type: "ReLU"
  bottom: "fc6"
  top: "fc6"
}
layer {
  name: "drop6"
  type: "Dropout"
  bottom: "fc6"
  top: "fc6"
  dropout_param {
    dropout_ratio: 0.5
  }
}
layer {
  name: "fc7"
  type: "InnerProduct"
  bottom: "fc6"
  top: "fc7"
  param {
    lr_mult: 1
    decay_mult: 1
  }
  param {
    lr_mult: 2
    decay_mult: 0
  }
  inner_product_param {
    num_output: 4096
    weight_filler {
      type: "gaussian"
      std: 0.005
    }
    bias_filler {
      type: "constant"
      value: 1
    }
  }
}
layer {
  name: "relu7"
  type: "ReLU"
  bottom: "fc7"
  top: "fc7"
}
layer {
  name: "drop7"
  type: "Dropout"
  bottom: "fc7"
  top: "fc7"
  dropout_param {
    dropout_ratio: 0.5
  }
}
layer {
  name: "fc8v"
  type: "InnerProduct"
  bottom: "fc7"
  top: "fc8v"
  param {
    lr_mult: 10
    decay_mult: 1
  }
  param {
    lr_mult: 20
    decay_mult: 0
  }
  inner_product_param {
    num_output: 21
    weight_filler {
      type: "gaussian"
      std: 0.01
    }
    bias_filler {
      type: "constant"
      value: 0
    }
  }
}
layer {
  name: "accuracy"
  type: "Accuracy"
  bottom: "fc8v"
  bottom: "label"
  top: "accuracy"
  include {
    phase: TEST
  }
}
layer {
  name: "loss"
  type: "SoftmaxWithLoss"
  bottom: "fc8v"
  bottom: "label"
  top: "loss"
}
I0420 12:55:16.924975 23375 layer_factory.hpp:77] Creating layer data
I0420 12:55:16.925014 23375 db_lmdb.cpp:35] Opened lmdb /mnt/localdb/lmdb/ilsvrc14det_grocery_val_lmdb
I0420 12:55:16.925025 23375 net.cpp:84] Creating Layer data
I0420 12:55:16.925029 23375 net.cpp:380] data -> data
I0420 12:55:16.925034 23375 net.cpp:380] data -> label
I0420 12:55:16.925037 23375 data_transformer.cpp:25] Loading mean file from: data/ilsvrc14det.groceryitems/ilsvrc14det_grocery_train_mean.binaryproto
I0420 12:55:16.926102 23375 data_layer.cpp:45] output data size: 62,3,227,227
I0420 12:55:16.967057 23375 net.cpp:122] Setting up data
I0420 12:55:16.967075 23375 net.cpp:129] Top shape: 62 3 227 227 (9584394)
I0420 12:55:16.967078 23375 net.cpp:129] Top shape: 62 (62)
I0420 12:55:16.967082 23375 net.cpp:137] Memory required for data: 38337824
I0420 12:55:16.967085 23375 layer_factory.hpp:77] Creating layer label_data_1_split
I0420 12:55:16.967545 23375 net.cpp:84] Creating Layer label_data_1_split
I0420 12:55:16.967550 23375 net.cpp:406] label_data_1_split <- label
I0420 12:55:16.967555 23375 net.cpp:380] label_data_1_split -> label_data_1_split_0
I0420 12:55:16.967561 23375 net.cpp:380] label_data_1_split -> label_data_1_split_1
I0420 12:55:16.967597 23375 net.cpp:122] Setting up label_data_1_split
I0420 12:55:16.967600 23375 net.cpp:129] Top shape: 62 (62)
I0420 12:55:16.967603 23375 net.cpp:129] Top shape: 62 (62)
I0420 12:55:16.967607 23375 net.cpp:137] Memory required for data: 38338320
I0420 12:55:16.967608 23375 layer_factory.hpp:77] Creating layer conv1
I0420 12:55:16.967617 23375 net.cpp:84] Creating Layer conv1
I0420 12:55:16.967622 23375 net.cpp:406] conv1 <- data
I0420 12:55:16.967628 23375 net.cpp:380] conv1 -> conv1
I0420 12:55:16.971698 23375 net.cpp:122] Setting up conv1
I0420 12:55:16.971706 23375 net.cpp:129] Top shape: 62 96 55 55 (18004800)
I0420 12:55:16.971709 23375 net.cpp:137] Memory required for data: 110357520
I0420 12:55:16.971716 23375 layer_factory.hpp:77] Creating layer relu1
I0420 12:55:16.971720 23375 net.cpp:84] Creating Layer relu1
I0420 12:55:16.971722 23375 net.cpp:406] relu1 <- conv1
I0420 12:55:16.971725 23375 net.cpp:367] relu1 -> conv1 (in-place)
I0420 12:55:16.971827 23375 net.cpp:122] Setting up relu1
I0420 12:55:16.971832 23375 net.cpp:129] Top shape: 62 96 55 55 (18004800)
I0420 12:55:16.971835 23375 net.cpp:137] Memory required for data: 182376720
I0420 12:55:16.971839 23375 layer_factory.hpp:77] Creating layer pool1
I0420 12:55:16.971846 23375 net.cpp:84] Creating Layer pool1
I0420 12:55:16.971850 23375 net.cpp:406] pool1 <- conv1
I0420 12:55:16.971854 23375 net.cpp:380] pool1 -> pool1
I0420 12:55:16.971882 23375 net.cpp:122] Setting up pool1
I0420 12:55:16.971886 23375 net.cpp:129] Top shape: 62 96 27 27 (4339008)
I0420 12:55:16.971889 23375 net.cpp:137] Memory required for data: 199732752
I0420 12:55:16.971891 23375 layer_factory.hpp:77] Creating layer norm1
I0420 12:55:16.971895 23375 net.cpp:84] Creating Layer norm1
I0420 12:55:16.971899 23375 net.cpp:406] norm1 <- pool1
I0420 12:55:16.971901 23375 net.cpp:380] norm1 -> norm1
I0420 12:55:16.972431 23375 net.cpp:122] Setting up norm1
I0420 12:55:16.972440 23375 net.cpp:129] Top shape: 62 96 27 27 (4339008)
I0420 12:55:16.972441 23375 net.cpp:137] Memory required for data: 217088784
I0420 12:55:16.972443 23375 layer_factory.hpp:77] Creating layer conv2
I0420 12:55:16.972448 23375 net.cpp:84] Creating Layer conv2
I0420 12:55:16.972450 23375 net.cpp:406] conv2 <- norm1
I0420 12:55:16.972455 23375 net.cpp:380] conv2 -> conv2
I0420 12:55:16.975961 23375 net.cpp:122] Setting up conv2
I0420 12:55:16.975970 23375 net.cpp:129] Top shape: 62 256 27 27 (11570688)
I0420 12:55:16.975972 23375 net.cpp:137] Memory required for data: 263371536
I0420 12:55:16.975980 23375 layer_factory.hpp:77] Creating layer relu2
I0420 12:55:16.975985 23375 net.cpp:84] Creating Layer relu2
I0420 12:55:16.976004 23375 net.cpp:406] relu2 <- conv2
I0420 12:55:16.976007 23375 net.cpp:367] relu2 -> conv2 (in-place)
I0420 12:55:16.976526 23375 net.cpp:122] Setting up relu2
I0420 12:55:16.976532 23375 net.cpp:129] Top shape: 62 256 27 27 (11570688)
I0420 12:55:16.976534 23375 net.cpp:137] Memory required for data: 309654288
I0420 12:55:16.976536 23375 layer_factory.hpp:77] Creating layer pool2
I0420 12:55:16.976542 23375 net.cpp:84] Creating Layer pool2
I0420 12:55:16.976544 23375 net.cpp:406] pool2 <- conv2
I0420 12:55:16.976547 23375 net.cpp:380] pool2 -> pool2
I0420 12:55:16.976577 23375 net.cpp:122] Setting up pool2
I0420 12:55:16.976582 23375 net.cpp:129] Top shape: 62 256 13 13 (2682368)
I0420 12:55:16.976583 23375 net.cpp:137] Memory required for data: 320383760
I0420 12:55:16.976584 23375 layer_factory.hpp:77] Creating layer norm2
I0420 12:55:16.976588 23375 net.cpp:84] Creating Layer norm2
I0420 12:55:16.976590 23375 net.cpp:406] norm2 <- pool2
I0420 12:55:16.976593 23375 net.cpp:380] norm2 -> norm2
I0420 12:55:16.976722 23375 net.cpp:122] Setting up norm2
I0420 12:55:16.976727 23375 net.cpp:129] Top shape: 62 256 13 13 (2682368)
I0420 12:55:16.976729 23375 net.cpp:137] Memory required for data: 331113232
I0420 12:55:16.976732 23375 layer_factory.hpp:77] Creating layer conv3
I0420 12:55:16.976737 23375 net.cpp:84] Creating Layer conv3
I0420 12:55:16.976739 23375 net.cpp:406] conv3 <- norm2
I0420 12:55:16.976742 23375 net.cpp:380] conv3 -> conv3
I0420 12:55:16.986280 23375 net.cpp:122] Setting up conv3
I0420 12:55:16.986296 23375 net.cpp:129] Top shape: 62 384 13 13 (4023552)
I0420 12:55:16.986299 23375 net.cpp:137] Memory required for data: 347207440
I0420 12:55:16.986309 23375 layer_factory.hpp:77] Creating layer relu3
I0420 12:55:16.986313 23375 net.cpp:84] Creating Layer relu3
I0420 12:55:16.986315 23375 net.cpp:406] relu3 <- conv3
I0420 12:55:16.986318 23375 net.cpp:367] relu3 -> conv3 (in-place)
I0420 12:55:16.986429 23375 net.cpp:122] Setting up relu3
I0420 12:55:16.986436 23375 net.cpp:129] Top shape: 62 384 13 13 (4023552)
I0420 12:55:16.986439 23375 net.cpp:137] Memory required for data: 363301648
I0420 12:55:16.986443 23375 layer_factory.hpp:77] Creating layer conv4
I0420 12:55:16.986451 23375 net.cpp:84] Creating Layer conv4
I0420 12:55:16.986455 23375 net.cpp:406] conv4 <- conv3
I0420 12:55:16.986460 23375 net.cpp:380] conv4 -> conv4
I0420 12:55:16.992991 23375 net.cpp:122] Setting up conv4
I0420 12:55:16.993005 23375 net.cpp:129] Top shape: 62 384 13 13 (4023552)
I0420 12:55:16.993007 23375 net.cpp:137] Memory required for data: 379395856
I0420 12:55:16.993013 23375 layer_factory.hpp:77] Creating layer relu4
I0420 12:55:16.993018 23375 net.cpp:84] Creating Layer relu4
I0420 12:55:16.993022 23375 net.cpp:406] relu4 <- conv4
I0420 12:55:16.993026 23375 net.cpp:367] relu4 -> conv4 (in-place)
I0420 12:55:16.993155 23375 net.cpp:122] Setting up relu4
I0420 12:55:16.993160 23375 net.cpp:129] Top shape: 62 384 13 13 (4023552)
I0420 12:55:16.993162 23375 net.cpp:137] Memory required for data: 395490064
I0420 12:55:16.993165 23375 layer_factory.hpp:77] Creating layer conv5
I0420 12:55:16.993170 23375 net.cpp:84] Creating Layer conv5
I0420 12:55:16.993172 23375 net.cpp:406] conv5 <- conv4
I0420 12:55:16.993176 23375 net.cpp:380] conv5 -> conv5
I0420 12:55:17.001322 23375 net.cpp:122] Setting up conv5
I0420 12:55:17.001334 23375 net.cpp:129] Top shape: 62 256 13 13 (2682368)
I0420 12:55:17.001337 23375 net.cpp:137] Memory required for data: 406219536
I0420 12:55:17.001345 23375 layer_factory.hpp:77] Creating layer relu5
I0420 12:55:17.001350 23375 net.cpp:84] Creating Layer relu5
I0420 12:55:17.001353 23375 net.cpp:406] relu5 <- conv5
I0420 12:55:17.001355 23375 net.cpp:367] relu5 -> conv5 (in-place)
I0420 12:55:17.001464 23375 net.cpp:122] Setting up relu5
I0420 12:55:17.001471 23375 net.cpp:129] Top shape: 62 256 13 13 (2682368)
I0420 12:55:17.001472 23375 net.cpp:137] Memory required for data: 416949008
I0420 12:55:17.001476 23375 layer_factory.hpp:77] Creating layer pool5
I0420 12:55:17.001502 23375 net.cpp:84] Creating Layer pool5
I0420 12:55:17.001507 23375 net.cpp:406] pool5 <- conv5
I0420 12:55:17.001510 23375 net.cpp:380] pool5 -> pool5
I0420 12:55:17.001543 23375 net.cpp:122] Setting up pool5
I0420 12:55:17.001547 23375 net.cpp:129] Top shape: 62 256 6 6 (571392)
I0420 12:55:17.001549 23375 net.cpp:137] Memory required for data: 419234576
I0420 12:55:17.001551 23375 layer_factory.hpp:77] Creating layer fc6
I0420 12:55:17.001555 23375 net.cpp:84] Creating Layer fc6
I0420 12:55:17.001557 23375 net.cpp:406] fc6 <- pool5
I0420 12:55:17.001560 23375 net.cpp:380] fc6 -> fc6
I0420 12:55:17.249197 23375 net.cpp:122] Setting up fc6
I0420 12:55:17.249215 23375 net.cpp:129] Top shape: 62 4096 (253952)
I0420 12:55:17.249218 23375 net.cpp:137] Memory required for data: 420250384
I0420 12:55:17.249224 23375 layer_factory.hpp:77] Creating layer relu6
I0420 12:55:17.249229 23375 net.cpp:84] Creating Layer relu6
I0420 12:55:17.249233 23375 net.cpp:406] relu6 <- fc6
I0420 12:55:17.249236 23375 net.cpp:367] relu6 -> fc6 (in-place)
I0420 12:55:17.249380 23375 net.cpp:122] Setting up relu6
I0420 12:55:17.249387 23375 net.cpp:129] Top shape: 62 4096 (253952)
I0420 12:55:17.249389 23375 net.cpp:137] Memory required for data: 421266192
I0420 12:55:17.249392 23375 layer_factory.hpp:77] Creating layer drop6
I0420 12:55:17.249397 23375 net.cpp:84] Creating Layer drop6
I0420 12:55:17.249398 23375 net.cpp:406] drop6 <- fc6
I0420 12:55:17.249400 23375 net.cpp:367] drop6 -> fc6 (in-place)
I0420 12:55:17.249418 23375 net.cpp:122] Setting up drop6
I0420 12:55:17.249423 23375 net.cpp:129] Top shape: 62 4096 (253952)
I0420 12:55:17.249423 23375 net.cpp:137] Memory required for data: 422282000
I0420 12:55:17.249425 23375 layer_factory.hpp:77] Creating layer fc7
I0420 12:55:17.249429 23375 net.cpp:84] Creating Layer fc7
I0420 12:55:17.249431 23375 net.cpp:406] fc7 <- fc6
I0420 12:55:17.249434 23375 net.cpp:380] fc7 -> fc7
I0420 12:55:17.358737 23375 net.cpp:122] Setting up fc7
I0420 12:55:17.358757 23375 net.cpp:129] Top shape: 62 4096 (253952)
I0420 12:55:17.358759 23375 net.cpp:137] Memory required for data: 423297808
I0420 12:55:17.358767 23375 layer_factory.hpp:77] Creating layer relu7
I0420 12:55:17.358772 23375 net.cpp:84] Creating Layer relu7
I0420 12:55:17.358775 23375 net.cpp:406] relu7 <- fc7
I0420 12:55:17.358779 23375 net.cpp:367] relu7 -> fc7 (in-place)
I0420 12:55:17.359426 23375 net.cpp:122] Setting up relu7
I0420 12:55:17.359433 23375 net.cpp:129] Top shape: 62 4096 (253952)
I0420 12:55:17.359436 23375 net.cpp:137] Memory required for data: 424313616
I0420 12:55:17.359437 23375 layer_factory.hpp:77] Creating layer drop7
I0420 12:55:17.359441 23375 net.cpp:84] Creating Layer drop7
I0420 12:55:17.359443 23375 net.cpp:406] drop7 <- fc7
I0420 12:55:17.359447 23375 net.cpp:367] drop7 -> fc7 (in-place)
I0420 12:55:17.359465 23375 net.cpp:122] Setting up drop7
I0420 12:55:17.359468 23375 net.cpp:129] Top shape: 62 4096 (253952)
I0420 12:55:17.359470 23375 net.cpp:137] Memory required for data: 425329424
I0420 12:55:17.359472 23375 layer_factory.hpp:77] Creating layer fc8v
I0420 12:55:17.359477 23375 net.cpp:84] Creating Layer fc8v
I0420 12:55:17.359478 23375 net.cpp:406] fc8v <- fc7
I0420 12:55:17.359482 23375 net.cpp:380] fc8v -> fc8v
I0420 12:55:17.360077 23375 net.cpp:122] Setting up fc8v
I0420 12:55:17.360082 23375 net.cpp:129] Top shape: 62 21 (1302)
I0420 12:55:17.360085 23375 net.cpp:137] Memory required for data: 425334632
I0420 12:55:17.360088 23375 layer_factory.hpp:77] Creating layer fc8v_fc8v_0_split
I0420 12:55:17.360091 23375 net.cpp:84] Creating Layer fc8v_fc8v_0_split
I0420 12:55:17.360093 23375 net.cpp:406] fc8v_fc8v_0_split <- fc8v
I0420 12:55:17.360096 23375 net.cpp:380] fc8v_fc8v_0_split -> fc8v_fc8v_0_split_0
I0420 12:55:17.360100 23375 net.cpp:380] fc8v_fc8v_0_split -> fc8v_fc8v_0_split_1
I0420 12:55:17.360122 23375 net.cpp:122] Setting up fc8v_fc8v_0_split
I0420 12:55:17.360126 23375 net.cpp:129] Top shape: 62 21 (1302)
I0420 12:55:17.360128 23375 net.cpp:129] Top shape: 62 21 (1302)
I0420 12:55:17.360146 23375 net.cpp:137] Memory required for data: 425345048
I0420 12:55:17.360148 23375 layer_factory.hpp:77] Creating layer accuracy
I0420 12:55:17.360642 23375 net.cpp:84] Creating Layer accuracy
I0420 12:55:17.360646 23375 net.cpp:406] accuracy <- fc8v_fc8v_0_split_0
I0420 12:55:17.360649 23375 net.cpp:406] accuracy <- label_data_1_split_0
I0420 12:55:17.360653 23375 net.cpp:380] accuracy -> accuracy
…
