…
I0420 17:03:16.064515 27316 upgrade_proto.cpp:67] Attempting to upgrade input file specified using deprecated input fields: models/mdl_grocery_caffenet/deploy.prototxt
I0420 17:03:16.064527 27316 upgrade_proto.cpp:70] Successfully upgraded file specified using deprecated input fields.
W0420 17:03:16.064530 27316 upgrade_proto.cpp:72] Note that future Caffe releases will only support input layers and not input fields.
I0420 17:03:16.064607 27316 net.cpp:51] Initializing net from parameters: 
name: "Grocery-CaffeNet"
state {
  phase: TEST
  level: 0
}
layer {
  name: "input"
  type: "Input"
  top: "data"
  input_param {
    shape {
      dim: 1
      dim: 3
      dim: 227
      dim: 227
    }
  }
}
layer {
  name: "conv1"
  type: "Convolution"
  bottom: "data"
  top: "conv1"
  convolution_param {
    num_output: 96
    kernel_size: 11
    stride: 4
  }
}
layer {
  name: "relu1"
  type: "ReLU"
  bottom: "conv1"
  top: "conv1"
}
layer {
  name: "pool1"
  type: "Pooling"
  bottom: "conv1"
  top: "pool1"
  pooling_param {
    pool: MAX
    kernel_size: 3
    stride: 2
  }
}
layer {
  name: "norm1"
  type: "LRN"
  bottom: "pool1"
  top: "norm1"
  lrn_param {
    local_size: 5
    alpha: 0.0001
    beta: 0.75
  }
}
layer {
  name: "conv2"
  type: "Convolution"
  bottom: "norm1"
  top: "conv2"
  convolution_param {
    num_output: 256
    pad: 2
    kernel_size: 5
    group: 2
  }
}
layer {
  name: "relu2"
  type: "ReLU"
  bottom: "conv2"
  top: "conv2"
}
layer {
  name: "pool2"
  type: "Pooling"
  bottom: "conv2"
  top: "pool2"
  pooling_param {
    pool: MAX
    kernel_size: 3
    stride: 2
  }
}
layer {
  name: "norm2"
  type: "LRN"
  bottom: "pool2"
  top: "norm2"
  lrn_param {
    local_size: 5
    alpha: 0.0001
    beta: 0.75
  }
}
layer {
  name: "conv3"
  type: "Convolution"
  bottom: "norm2"
  top: "conv3"
  convolution_param {
    num_output: 384
    pad: 1
    kernel_size: 3
  }
}
layer {
  name: "relu3"
  type: "ReLU"
  bottom: "conv3"
  top: "conv3"
}
layer {
  name: "conv4"
  type: "Convolution"
  bottom: "conv3"
  top: "conv4"
  convolution_param {
    num_output: 384
    pad: 1
    kernel_size: 3
    group: 2
  }
}
layer {
  name: "relu4"
  type: "ReLU"
  bottom: "conv4"
  top: "conv4"
}
layer {
  name: "conv5"
  type: "Convolution"
  bottom: "conv4"
  top: "conv5"
  convolution_param {
    num_output: 256
    pad: 1
    kernel_size: 3
    group: 2
  }
}
layer {
  name: "relu5"
  type: "ReLU"
  bottom: "conv5"
  top: "conv5"
}
layer {
  name: "pool5"
  type: "Pooling"
  bottom: "conv5"
  top: "pool5"
  pooling_param {
    pool: MAX
    kernel_size: 3
    stride: 2
  }
}
layer {
  name: "fc6"
  type: "InnerProduct"
  bottom: "pool5"
  top: "fc6"
  inner_product_param {
    num_output: 4096
  }
}
layer {
  name: "relu6"
  type: "ReLU"
  bottom: "fc6"
  top: "fc6"
}
layer {
  name: "drop6"
  type: "Dropout"
  bottom: "fc6"
  top: "fc6"
  dropout_param {
    dropout_ratio: 0.5
  }
}
layer {
  name: "fc7"
  type: "InnerProduct"
  bottom: "fc6"
  top: "fc7"
  inner_product_param {
    num_output: 4096
  }
}
layer {
  name: "relu7"
  type: "ReLU"
  bottom: "fc7"
  top: "fc7"
}
layer {
  name: "drop7"
  type: "Dropout"
  bottom: "fc7"
  top: "fc7"
  dropout_param {
    dropout_ratio: 0.5
  }
}
layer {
  name: "fc8v"
  type: "InnerProduct"
  bottom: "fc7"
  top: "fc8v"
  inner_product_param {
    num_output: 21
  }
}
layer {
  name: "prob"
  type: "Softmax"
  bottom: "fc8v"
  top: "prob"
}
I0420 17:03:16.064792 27316 layer_factory.hpp:77] Creating layer input
I0420 17:03:16.064800 27316 net.cpp:84] Creating Layer input
I0420 17:03:16.064807 27316 net.cpp:380] input -> data
I0420 17:03:16.074261 27316 net.cpp:122] Setting up input
I0420 17:03:16.074278 27316 net.cpp:129] Top shape: 1 3 227 227 (154587)
I0420 17:03:16.074281 27316 net.cpp:137] Memory required for data: 618348
I0420 17:03:16.074287 27316 layer_factory.hpp:77] Creating layer conv1
I0420 17:03:16.074301 27316 net.cpp:84] Creating Layer conv1
I0420 17:03:16.074306 27316 net.cpp:406] conv1 <- data
I0420 17:03:16.074312 27316 net.cpp:380] conv1 -> conv1
I0420 17:03:16.229336 27316 net.cpp:122] Setting up conv1
I0420 17:03:16.229357 27316 net.cpp:129] Top shape: 1 96 55 55 (290400)
I0420 17:03:16.229360 27316 net.cpp:137] Memory required for data: 1779948
I0420 17:03:16.229373 27316 layer_factory.hpp:77] Creating layer relu1
I0420 17:03:16.229384 27316 net.cpp:84] Creating Layer relu1
I0420 17:03:16.229387 27316 net.cpp:406] relu1 <- conv1
I0420 17:03:16.229393 27316 net.cpp:367] relu1 -> conv1 (in-place)
I0420 17:03:16.229503 27316 net.cpp:122] Setting up relu1
I0420 17:03:16.229509 27316 net.cpp:129] Top shape: 1 96 55 55 (290400)
I0420 17:03:16.229512 27316 net.cpp:137] Memory required for data: 2941548
I0420 17:03:16.229516 27316 layer_factory.hpp:77] Creating layer pool1
I0420 17:03:16.229521 27316 net.cpp:84] Creating Layer pool1
I0420 17:03:16.229526 27316 net.cpp:406] pool1 <- conv1
I0420 17:03:16.229531 27316 net.cpp:380] pool1 -> pool1
I0420 17:03:16.229563 27316 net.cpp:122] Setting up pool1
I0420 17:03:16.229568 27316 net.cpp:129] Top shape: 1 96 27 27 (69984)
I0420 17:03:16.229571 27316 net.cpp:137] Memory required for data: 3221484
I0420 17:03:16.229575 27316 layer_factory.hpp:77] Creating layer norm1
I0420 17:03:16.229583 27316 net.cpp:84] Creating Layer norm1
I0420 17:03:16.229586 27316 net.cpp:406] norm1 <- pool1
I0420 17:03:16.229590 27316 net.cpp:380] norm1 -> norm1
I0420 17:03:16.230106 27316 net.cpp:122] Setting up norm1
I0420 17:03:16.230113 27316 net.cpp:129] Top shape: 1 96 27 27 (69984)
I0420 17:03:16.230116 27316 net.cpp:137] Memory required for data: 3501420
I0420 17:03:16.230119 27316 layer_factory.hpp:77] Creating layer conv2
I0420 17:03:16.230129 27316 net.cpp:84] Creating Layer conv2
I0420 17:03:16.230132 27316 net.cpp:406] conv2 <- norm1
I0420 17:03:16.230139 27316 net.cpp:380] conv2 -> conv2
I0420 17:03:16.232244 27316 net.cpp:122] Setting up conv2
I0420 17:03:16.232255 27316 net.cpp:129] Top shape: 1 256 27 27 (186624)
I0420 17:03:16.232259 27316 net.cpp:137] Memory required for data: 4247916
I0420 17:03:16.232267 27316 layer_factory.hpp:77] Creating layer relu2
I0420 17:03:16.232275 27316 net.cpp:84] Creating Layer relu2
I0420 17:03:16.232278 27316 net.cpp:406] relu2 <- conv2
I0420 17:03:16.232283 27316 net.cpp:367] relu2 -> conv2 (in-place)
I0420 17:03:16.232785 27316 net.cpp:122] Setting up relu2
I0420 17:03:16.232792 27316 net.cpp:129] Top shape: 1 256 27 27 (186624)
I0420 17:03:16.232796 27316 net.cpp:137] Memory required for data: 4994412
I0420 17:03:16.232800 27316 layer_factory.hpp:77] Creating layer pool2
I0420 17:03:16.232805 27316 net.cpp:84] Creating Layer pool2
I0420 17:03:16.232810 27316 net.cpp:406] pool2 <- conv2
I0420 17:03:16.232815 27316 net.cpp:380] pool2 -> pool2
I0420 17:03:16.232848 27316 net.cpp:122] Setting up pool2
I0420 17:03:16.232854 27316 net.cpp:129] Top shape: 1 256 13 13 (43264)
I0420 17:03:16.232857 27316 net.cpp:137] Memory required for data: 5167468
I0420 17:03:16.232861 27316 layer_factory.hpp:77] Creating layer norm2
I0420 17:03:16.232868 27316 net.cpp:84] Creating Layer norm2
I0420 17:03:16.232872 27316 net.cpp:406] norm2 <- pool2
I0420 17:03:16.232877 27316 net.cpp:380] norm2 -> norm2
I0420 17:03:16.233000 27316 net.cpp:122] Setting up norm2
I0420 17:03:16.233005 27316 net.cpp:129] Top shape: 1 256 13 13 (43264)
I0420 17:03:16.233008 27316 net.cpp:137] Memory required for data: 5340524
I0420 17:03:16.233011 27316 layer_factory.hpp:77] Creating layer conv3
I0420 17:03:16.233019 27316 net.cpp:84] Creating Layer conv3
I0420 17:03:16.233022 27316 net.cpp:406] conv3 <- norm2
I0420 17:03:16.233028 27316 net.cpp:380] conv3 -> conv3
I0420 17:03:16.235162 27316 net.cpp:122] Setting up conv3
I0420 17:03:16.235173 27316 net.cpp:129] Top shape: 1 384 13 13 (64896)
I0420 17:03:16.235177 27316 net.cpp:137] Memory required for data: 5600108
I0420 17:03:16.235188 27316 layer_factory.hpp:77] Creating layer relu3
I0420 17:03:16.235196 27316 net.cpp:84] Creating Layer relu3
I0420 17:03:16.235200 27316 net.cpp:406] relu3 <- conv3
I0420 17:03:16.235206 27316 net.cpp:367] relu3 -> conv3 (in-place)
I0420 17:03:16.235321 27316 net.cpp:122] Setting up relu3
I0420 17:03:16.235327 27316 net.cpp:129] Top shape: 1 384 13 13 (64896)
I0420 17:03:16.235330 27316 net.cpp:137] Memory required for data: 5859692
I0420 17:03:16.235333 27316 layer_factory.hpp:77] Creating layer conv4
I0420 17:03:16.235342 27316 net.cpp:84] Creating Layer conv4
I0420 17:03:16.235345 27316 net.cpp:406] conv4 <- conv3
I0420 17:03:16.235352 27316 net.cpp:380] conv4 -> conv4
I0420 17:03:16.237913 27316 net.cpp:122] Setting up conv4
I0420 17:03:16.237923 27316 net.cpp:129] Top shape: 1 384 13 13 (64896)
I0420 17:03:16.237927 27316 net.cpp:137] Memory required for data: 6119276
I0420 17:03:16.237933 27316 layer_factory.hpp:77] Creating layer relu4
I0420 17:03:16.237939 27316 net.cpp:84] Creating Layer relu4
I0420 17:03:16.237943 27316 net.cpp:406] relu4 <- conv4
I0420 17:03:16.237948 27316 net.cpp:367] relu4 -> conv4 (in-place)
I0420 17:03:16.238066 27316 net.cpp:122] Setting up relu4
I0420 17:03:16.238072 27316 net.cpp:129] Top shape: 1 384 13 13 (64896)
I0420 17:03:16.238076 27316 net.cpp:137] Memory required for data: 6378860
I0420 17:03:16.238080 27316 layer_factory.hpp:77] Creating layer conv5
I0420 17:03:16.238086 27316 net.cpp:84] Creating Layer conv5
I0420 17:03:16.238090 27316 net.cpp:406] conv5 <- conv4
I0420 17:03:16.238096 27316 net.cpp:380] conv5 -> conv5
I0420 17:03:16.240576 27316 net.cpp:122] Setting up conv5
I0420 17:03:16.240586 27316 net.cpp:129] Top shape: 1 256 13 13 (43264)
I0420 17:03:16.240589 27316 net.cpp:137] Memory required for data: 6551916
I0420 17:03:16.240602 27316 layer_factory.hpp:77] Creating layer relu5
I0420 17:03:16.240608 27316 net.cpp:84] Creating Layer relu5
I0420 17:03:16.240613 27316 net.cpp:406] relu5 <- conv5
I0420 17:03:16.240619 27316 net.cpp:367] relu5 -> conv5 (in-place)
I0420 17:03:16.240736 27316 net.cpp:122] Setting up relu5
I0420 17:03:16.240741 27316 net.cpp:129] Top shape: 1 256 13 13 (43264)
I0420 17:03:16.240744 27316 net.cpp:137] Memory required for data: 6724972
I0420 17:03:16.240748 27316 layer_factory.hpp:77] Creating layer pool5
I0420 17:03:16.240753 27316 net.cpp:84] Creating Layer pool5
I0420 17:03:16.240757 27316 net.cpp:406] pool5 <- conv5
I0420 17:03:16.240763 27316 net.cpp:380] pool5 -> pool5
I0420 17:03:16.240797 27316 net.cpp:122] Setting up pool5
I0420 17:03:16.240803 27316 net.cpp:129] Top shape: 1 256 6 6 (9216)
I0420 17:03:16.240806 27316 net.cpp:137] Memory required for data: 6761836
I0420 17:03:16.240810 27316 layer_factory.hpp:77] Creating layer fc6
I0420 17:03:16.240819 27316 net.cpp:84] Creating Layer fc6
I0420 17:03:16.240823 27316 net.cpp:406] fc6 <- pool5
I0420 17:03:16.240828 27316 net.cpp:380] fc6 -> fc6
I0420 17:03:16.277171 27316 net.cpp:122] Setting up fc6
I0420 17:03:16.277194 27316 net.cpp:129] Top shape: 1 4096 (4096)
I0420 17:03:16.277196 27316 net.cpp:137] Memory required for data: 6778220
I0420 17:03:16.277205 27316 layer_factory.hpp:77] Creating layer relu6
I0420 17:03:16.277215 27316 net.cpp:84] Creating Layer relu6
I0420 17:03:16.277218 27316 net.cpp:406] relu6 <- fc6
I0420 17:03:16.277225 27316 net.cpp:367] relu6 -> fc6 (in-place)
I0420 17:03:16.277377 27316 net.cpp:122] Setting up relu6
I0420 17:03:16.277382 27316 net.cpp:129] Top shape: 1 4096 (4096)
I0420 17:03:16.277385 27316 net.cpp:137] Memory required for data: 6794604
I0420 17:03:16.277389 27316 layer_factory.hpp:77] Creating layer drop6
I0420 17:03:16.277395 27316 net.cpp:84] Creating Layer drop6
I0420 17:03:16.277398 27316 net.cpp:406] drop6 <- fc6
I0420 17:03:16.277403 27316 net.cpp:367] drop6 -> fc6 (in-place)
I0420 17:03:16.277426 27316 net.cpp:122] Setting up drop6
I0420 17:03:16.277428 27316 net.cpp:129] Top shape: 1 4096 (4096)
I0420 17:03:16.277431 27316 net.cpp:137] Memory required for data: 6810988
I0420 17:03:16.277436 27316 layer_factory.hpp:77] Creating layer fc7
I0420 17:03:16.277441 27316 net.cpp:84] Creating Layer fc7
I0420 17:03:16.277446 27316 net.cpp:406] fc7 <- fc6
I0420 17:03:16.277451 27316 net.cpp:380] fc7 -> fc7
I0420 17:03:16.293627 27316 net.cpp:122] Setting up fc7
I0420 17:03:16.293653 27316 net.cpp:129] Top shape: 1 4096 (4096)
I0420 17:03:16.293656 27316 net.cpp:137] Memory required for data: 6827372
I0420 17:03:16.293665 27316 layer_factory.hpp:77] Creating layer relu7
I0420 17:03:16.293675 27316 net.cpp:84] Creating Layer relu7
I0420 17:03:16.293679 27316 net.cpp:406] relu7 <- fc7
I0420 17:03:16.293685 27316 net.cpp:367] relu7 -> fc7 (in-place)
I0420 17:03:16.294292 27316 net.cpp:122] Setting up relu7
I0420 17:03:16.294299 27316 net.cpp:129] Top shape: 1 4096 (4096)
I0420 17:03:16.294303 27316 net.cpp:137] Memory required for data: 6843756
I0420 17:03:16.294306 27316 layer_factory.hpp:77] Creating layer drop7
I0420 17:03:16.294314 27316 net.cpp:84] Creating Layer drop7
I0420 17:03:16.294318 27316 net.cpp:406] drop7 <- fc7
I0420 17:03:16.294323 27316 net.cpp:367] drop7 -> fc7 (in-place)
I0420 17:03:16.294348 27316 net.cpp:122] Setting up drop7
I0420 17:03:16.294350 27316 net.cpp:129] Top shape: 1 4096 (4096)
I0420 17:03:16.294353 27316 net.cpp:137] Memory required for data: 6860140
I0420 17:03:16.294358 27316 layer_factory.hpp:77] Creating layer fc8v
I0420 17:03:16.294363 27316 net.cpp:84] Creating Layer fc8v
I0420 17:03:16.294366 27316 net.cpp:406] fc8v <- fc7
I0420 17:03:16.294373 27316 net.cpp:380] fc8v -> fc8v
I0420 17:03:16.294459 27316 net.cpp:122] Setting up fc8v
I0420 17:03:16.294464 27316 net.cpp:129] Top shape: 1 21 (21)
I0420 17:03:16.294467 27316 net.cpp:137] Memory required for data: 6860224
I0420 17:03:16.294473 27316 layer_factory.hpp:77] Creating layer prob
I0420 17:03:16.294479 27316 net.cpp:84] Creating Layer prob
I0420 17:03:16.294483 27316 net.cpp:406] prob <- fc8v
I0420 17:03:16.294487 27316 net.cpp:380] prob -> prob
I0420 17:03:16.294631 27316 net.cpp:122] Setting up prob
I0420 17:03:16.294636 27316 net.cpp:129] Top shape: 1 21 (21)
I0420 17:03:16.294639 27316 net.cpp:137] Memory required for data: 6860308
I0420 17:03:16.294642 27316 net.cpp:200] prob does not need backward computation.
I0420 17:03:16.294646 27316 net.cpp:200] fc8v does not need backward computation.
I0420 17:03:16.294651 27316 net.cpp:200] drop7 does not need backward computation.
I0420 17:03:16.294653 27316 net.cpp:200] relu7 does not need backward computation.
…
